{'O': 0, 'B-PERS': 1, 'I-PERS': 2, 'B-ORG': 3, 'I-ORG': 4, 'B-MISC': 5, 'I-MISC': 6, 'B-LOC': 7, 'I-LOC': 8}
{0: 'O', 1: 'B-PERS', 2: 'I-PERS', 3: 'B-ORG', 4: 'I-ORG', 5: 'B-MISC', 6: 'I-MISC', 7: 'B-LOC', 8: 'I-LOC'}
BertForTokenClassification(
  (bert): BertModel(
    (embeddings): BertEmbeddings(
      (word_embeddings): Embedding(64000, 768, padding_idx=0)
      (position_embeddings): Embedding(512, 768)
      (token_type_embeddings): Embedding(2, 768)
      (LayerNorm): LayerNorm((768,), eps=1e-12, elementwise_affine=True)
      (dropout): Dropout(p=0.1, inplace=False)
    )
    (encoder): BertEncoder(
      (layer): ModuleList(
        (0-11): 12 x BertLayer(
          (attention): BertAttention(
            (self): BertSelfAttention(
              (query): Linear(in_features=768, out_features=768, bias=True)
              (key): Linear(in_features=768, out_features=768, bias=True)
              (value): Linear(in_features=768, out_features=768, bias=True)
              (dropout): Dropout(p=0.1, inplace=False)
            )
            (output): BertSelfOutput(
              (dense): Linear(in_features=768, out_features=768, bias=True)
              (LayerNorm): LayerNorm((768,), eps=1e-12, elementwise_affine=True)
              (dropout): Dropout(p=0.1, inplace=False)
            )
          )
          (intermediate): BertIntermediate(
            (dense): Linear(in_features=768, out_features=3072, bias=True)
            (intermediate_act_fn): GELUActivation()
          )
          (output): BertOutput(
            (dense): Linear(in_features=3072, out_features=768, bias=True)
            (LayerNorm): LayerNorm((768,), eps=1e-12, elementwise_affine=True)
            (dropout): Dropout(p=0.1, inplace=False)
          )
        )
      )
    )
  )
  (dropout): Dropout(p=0.1, inplace=False)
  (classifier): Linear(in_features=768, out_features=9, bias=True)
)
Epoch 1/10
----------
  0%|          | 0/249 [00:00<?, ?it/s]
26.731612224131823
Train loss 0.10735587238607158
  0%|          | 0/58 [00:00<?, ?it/s]
Eval loss: 0.13205992064342417
Eval Metrics:  {'accuracy_score': 0.9691889080068825, 'precision': 0.8320472083522469, 'recall': 0.8028909329829172, 'f1': 0.8172090949621044}
--------------------------------------------------------------------
…
